saved_models/aae/discriminator.pt (torch, 53341 bytes, 5 tensors)

net.0.weight f4 [128, 32]
000000 f7 a3 be 3e c6 06 8f 3b b4 5b 80 3d 2c b9 93 be
       0.3723447 0.004364821 0.06267491 -0.28852212
000010 0a bb 6e bd 10 3b e4 bd 04 ea 69 bb 9f 90 75 3d
       -0.058283843 -0.11144078 -0.0035692463 0.059952375
000020 55 2b 87 bd dc fe e0 bd 4b f6 88 bc ff 83 04 3e
       -0.06600062 -0.109861106 -0.016719004 0.12940978
000030 7c 93 9e bd 1c e7 15 3e 9c c8 e7 bd b8 70 1d 3e
       -0.07742974 0.14638942 -0.1131756 0.1537503
000040 5c 7c 9f 3e ef 9a ef bd 97 1e 31 3e 92 72 b2 be
       0.31149566 -0.11699473 0.17296825 -0.34853035
000050 37 88 73 3e 43 75 ba 3d 87 4b a3 bd 91 6a 0c be
       0.2378243 0.09104397 -0.0797339 -0.13712527
000060 05 10 49 3c 2e 3d bc bd 5a e3 38 3d 5e e5 18 3c
       0.012271886 -0.091913566 0.045138694 0.009332029
000070 93 cf 11 3c c7 5e 82 3e 85 cb 7a 3d 20 b4 61 bd
       0.008899587 0.25462934 0.061229248 -0.05510342
000080 da 9d fc ba fa 96 c2 3d f8 20 b0 3d ff 59 ba 3e
       -0.0019273118 0.09501453 0.08600038 0.36396787
000090 d8 31 2c 3d 12 11 df bd 72 3b df 3c aa 52 c9 3c
       0.042039722 -0.10891928 0.027250025 0.02457555
0000a0 a3 d7 ec 3d a5 78 a9 3d 03 ad ea 3d 80 e6 1b be
       0.11564567 0.08274964 0.114587806 -0.15224648
0000b0 fc df 0f 3d 33 47 61 3d 5a 32 5c 3e f4 84 bb 3e
       0.035125718 0.05499954 0.21503583 0.36624873
0000c0 8e 08 67 be 59 f0 99 be 24 73 30 3e d9 8b df 3d
       -0.22561857 -0.30066183 0.17231423 0.10915346
0000d0 66 89 eb bd a7 de 2a 3d e4 c0 96 3d 37 57 7b bd
       -0.11500816 0.041716244 0.0736101 -0.06136247
0000e0 ae 59 21 be 5e 7b 8b bc 85 e0 8d 3e 7d 64 94 bd
       -0.15756866 -0.0170266 0.27710357 -0.07245729
0000f0 02 68 a8 3e eb 37 30 be d0 4f 9c bc 86 93 9b 3c
       0.32891852 -0.17208831 -0.019081026 0.018991243
000100 92 53 1a 3c 68 e1 7c 3e 84 0e 37 be e2 bc 8f 3e
       0.009419339 0.2469536 -0.17876631 0.28073794
000110 60 4e 49 3e e2 71 e7 3d 68 0f af bd 7b ac 4a bd
       0.19658804 0.11301018 -0.085478604 -0.049480896
000120 f0 49 ce bd 3a ff 86 be a0 e5 7c 3e fe da 93 3d
       -0.10072696 -0.26366597 0.2469697 0.07219504
000130 82 f6 fd bc 44 26 f8 3d a9 3a a8 be 24 6d 8b 3e
       -0.031001333 0.121166736 -0.32857254 0.27231705
000140 1d 49 3d 3d 5f 86 20 be cd c7 c6 3d 28 14 b5 3e
       0.046212304 -0.15676259 0.09706078 0.3536694
000150 3a 30 e7 3d 43 63 4e be 16 04 02 3e d8 4c 16 3e
       0.11288495 -0.20155053 0.12696871 0.14677751
000160 5b 86 bf 3d fb a3 82 3e 4e 04 ec bd 96 bd 32 be
       0.09351798 0.25515732 -0.115242586 -0.17455134
000170 d8 24 b4 be ed 42 a6 bc 1a 21 f5 3b 61 0d 8e 3e
       -0.3518436 -0.020295585 0.0074807527 0.27744582
000180 45 38 7e bd 29 ec 09 bd 54 95 07 3e 47 f4 08 be
       -0.06206538 -0.033672486 0.13240558 -0.13374434
000190 c1 d1 e3 3d 8c fe 73 3e 69 dc 37 3d ff b3 00 bf
       0.11123992 0.2382757 0.044887934 -0.5027465
0001a0 4d cf 88 3d 18 7a c1 3d 66 56 a4 3d 5f 6a 20 3d
       0.066801645 0.09447116 0.08024292 0.039163943
0001b0 a9 1d 2c 3d 72 1f 09 3e cd 69 3e be dc 6d 53 3e
       0.042020474 0.13390902 -0.18595047 0.20647377
0001c0 32 ac bb bd 60 ff 21 3e 47 7f d1 ba 9b 85 76 3e
       -0.09163703 0.15820074 -0.0015983366 0.24074404
0001d0 da 8b 43 bd 6f 7c 33 be c9 05 96 bd cc e2 8d be
       -0.047740795 -0.17527936 -0.07325322 -0.27712095
0001e0 70 91 7f 3e b6 2a 72 3d f2 ed eb 3d 71 82 96 3d
       0.24957824 0.059122764 0.11519994 0.073490985
0001f0 3c be a2 3e 09 f7 88 bd 12 9d 2d 3e 21 1f 80 3e
       0.31785762 -0.06687743 0.16954449 0.2502375
000200 9e 2b 05 3d 16 6a 71 be 62 2f c9 bd 59 06 2c 3d
       0.0325123 -0.23575625 -0.09823491 0.04199824
000210 7c 9c 84 3e 98 ff f5 3d 04 0e 9a be ce d7 36 bb
       0.25900638 0.12011641 -0.30088818 -0.0027899626
000220 75 30 ad bd 37 8b 06 bd d4 35 0f bd b0 32 62 bd
       -0.08456508 -0.03284761 -0.034963444 -0.05522412
000230 04 24 f9 bd 2b e6 2c be 2d f0 32 be a4 d3 0f 3e
       -0.121650726 -0.16884677 -0.17474432 0.14045578
000240 12 4a 8a 3c a6 b0 a6 3d cf c1 fe bd 2c cd fa bd
       0.016881023 0.08139162 -0.1243931 -0.12246165
000250 be 0e 86 bd a0 2e 3f 3e 77 ea db 3d 2b d9 3e bc
       -0.065457806 0.1867013 0.1073808 -0.011648457
000260 09 d7 84 be e0 21 a8 bd 04 3c 2e bc a5 b6 ac 3e
       -0.2594531 -0.08209586 -0.010634426 0.33733097
000270 2f c8 14 be 82 33 5d be 9c bb 92 be 3c f1 ea 3d
       -0.14529489 -0.2160168 -0.2865876 0.11471793
000280 d5 de 80 bd d3 8d e4 bb 3b 3e 89 bd 85 61 06 bf
       -0.06292502 -0.0069749146 -0.06701323 -0.52492553
000290 cd bc ab 3d cf f6 60 3e bf 16 51 3d b2 43 73 bd
       0.0838562 0.2196915 0.051047083 -0.05939073
0002a0 c6 16 d7 be 24 95 1e bd 34 da ef 3d 00 28 80 bd
       -0.42009562 -0.03871645 0.11711541 -0.062576294
0002b0 67 16 0b be cb eb 83 3e 25 07 92 3e da 9e c3 3c
       -0.13582765 0.25765833 0.28521076 0.023879457
0002c0 15 39 97 3d 48 6e 2c bc 18 b6 14 bd 49 54 95 3e
       0.073839344 -0.01052434 -0.03630647 0.29165867
0002d0 c7 92 c3 3d 3b 89 f9 bd 1f 1b e6 bd 58 e9 00 be
       0.0954948 -0.12184378 -0.11235642 -0.12589014
0002e0 9a d9 12 be e0 78 b2 3e 96 f8 8c be 52 c3 15 3e
       -0.14340821 0.34857845 -0.27533406 0.1462529
0002f0 b4 be 0b 3d 20 15 90 3e aa c2 14 3e c3 b5 2f be
       0.034117416 0.28141117 0.14527383 -0.1715918
000300 30 df 5e 3c d7 60 4c bd 3b 6a 97 be 39 ba 5a 3e
       0.013603017 -0.04989704 -0.29573235 0.21360101
000310 68 aa 9d bd 7e c8 8c 3e 33 02 b1 3d 5d 4a 4e 3e
       -0.07698518 0.27496713 0.086429976 0.20145555
000320 e9 0b b4 3d 2e 29 90 b9 e9 88 9e 3e b4 af 7a 3e
       0.08791334 -0.00027496502 0.3096383 0.24481088
000330 18 f0 bf 3d b2 6b 29 3e 19 be 0a 3e 32 40 9b 3e
       0.09371966 0.16544989 0.13549079 0.30322415
000340 ee 07 85 3e 1d 83 7b 3e 41 85 c3 3d 3f a6 ca 3e
       0.25982612 0.24561734 0.095469005 0.3957996
000350 dc da 88 3d 31 27 fe 3d 9a a7 03 3e 7b b1 63 be
       0.06682369 0.12409819 0.12856904 -0.22235672
000360 be 98 85 3d 4c 82 a7 be 66 8e 13 be 82 30 bb 3d
       0.06523274 -0.32716596 -0.1440979 0.091401115
000370 f2 71 9f 3e 19 3c 05 3d aa 42 9d 3e e3 ff 1a 3e
       0.3114162 0.032528017 0.30714923 0.15136676
000380 16 3c 71 bc 6c 7c 1d bd 85 2c 09 3e 35 7c c2 3e
       -0.014723798 -0.038448736 0.13395889 0.37985387
000390 3f b8 07 3e cd fa 5b bd ee ea e6 3e b1 2f b4 3e
       0.13253878 -0.05370598 0.45101112 0.35192636
0003a0 fb 59 d6 3d 1a 01 31 3d c0 54 82 be 61 5f 41 3d
       0.10466381 0.04321394 -0.25455284 0.0472101
0003b0 68 81 c8 bd 68 8e 52 3d 8e 4d ef bd b0 91 33 be
       -0.09790307 0.05140534 -0.11684714 -0.17536044
0003c0 8d 12 97 be 56 9e 52 3e b7 87 d6 bd d9 f2 54 3c
       -0.2950634 0.20568213 -0.10475104 0.0129973525
0003d0 15 3b e4 3d 48 79 18 bd b0 ef a3 bd aa 04 8e 3e
       0.111440815 -0.037225038 -0.08004701 0.27737933
0003e0 8a 7e a7 be 49 46 96 be d8 64 e6 3c fc f7 1b bd
       -0.3271373 -0.29350498 0.028124258 -0.038078293
0003f0 cd 3d 0c be 22 0f 8b 3e 34 ab b0 3c f0 b1 57 bd
       -0.1369545 0.27159983 0.021566011 -0.05265993

net.0.bias f4 [128]
000000 74 71 8b 3e 47 c7 92 be b6 af 82 3d eb e8 1d be
       0.27234995 -0.28667662 0.063811705 -0.15420882
000010 f1 b6 3b be ea dc 96 be 9a 3a b4 be 44 14 e9 bd
       -0.18331505 -0.2946542 -0.3520096 -0.113808185
000020 da 90 00 3f c5 09 cc bb dc 19 26 be ea 3e 8e bd
       0.50221026 -0.0062267506 -0.16220802 -0.06945594
000030 57 78 4b 3f 3e e9 1d 3f 6d 68 27 be 69 ae 2a 3f
       0.794805 0.61684024 -0.16348429 0.6667238
000040 6c c7 7a 3f cc 3c 2c be 07 37 87 be 8c 65 e3 3d
       0.97960544 -0.16820067 -0.2640917 0.11103353
000050 97 ca 5a bd 9b 16 79 be 04 89 18 be 6e 4b e1 3d
       -0.05341586 -0.2432503 -0.14896017 0.11000715
000060 23 2c fd be 71 cd 40 be 5b e8 8d be ac 61 14 bf
       -0.49447736 -0.1882837 -0.27716336 -0.57961535
000070 e5 d1 bb 3c 5b 4b 21 bf 7c 5b b5 3e 64 c8 10 be
       0.022927234 -0.6300561 0.3542136 -0.14138943
000080 da 3e ce bd 0e 65 27 be 43 5a 80 3f 90 c7 83 be
       -0.10070582 -0.16347143 1.0027546 -0.25738192
000090 5e 8e fa 3e 9d 5d 81 bd fe 4a a1 3e c3 7a e5 bd
       0.48936743 -0.063166834 0.31502527 -0.112050556
0000a0 2d 75 12 be 68 4d 7b 3d 4d ba 16 3d 0b b3 b1 3e
       -0.14302512 0.061353117 0.036798764 0.3470691
0000b0 73 19 0b bf 41 5d 3f 3e 8c 5f 7e be d8 6b 98 bd
       -0.5433571 0.18687917 -0.24841136 -0.074424446
0000c0 a8 02 80 be a6 40 7c be b8 0c 01 3f 88 a2 3a be
       -0.25002027 -0.24634036 0.5041003 -0.18226063
0000d0 2c 56 60 be 65 a0 96 3f 66 bf 1a 3f 41 b6 64 bd
       -0.21907872 1.1767699 0.604483 -0.055837873
0000e0 1b 63 cb 3e 7f 73 90 3e f0 89 06 be eb e8 d7 be
       0.3972405 0.28213117 -0.13138556 -0.4216989
0000f0 90 0c 3a 3f c7 b0 8f be 7f db a4 be cb 17 cc bd
       0.7267542 -0.28064558 -0.32198712 -0.09965476
000100 be 8c 66 be 6e d5 80 bd c9 59 e4 3d c0 aa a2 be
       -0.22514626 -0.062907085 0.11149938 -0.31770897
000110 54 85 f4 3d 46 0e 3f be 31 76 2d bd bf d8 ba bc
       0.11939493 -0.18657789 -0.042349044 -0.02280843
000120 23 ed b5 be 9a 58 49 3e aa 57 c9 3e 71 93 5c be
       -0.35532483 0.19662705 0.39324695 -0.2154062
000130 a0 37 2a bf 75 fd 2d 3f 51 b6 93 be a8 7b ee 3e
       -0.66491127 0.6796487 -0.28850034 0.46578717
000140 7d cf 23 be f4 49 a2 3e 5e 75 34 be 91 1e 40 be
       -0.15997119 0.31697047 -0.17622897 -0.1876166
000150 0f c3 28 3f 05 a6 ee bd f0 52 28 bf fb fa d0 bd
       0.65922636 -0.116527595 -0.6575155 -0.10204121
000160 8a 27 34 be 64 3a 8e 3e 9c fe 4b 3d 0e 63 3d be
       -0.17593208 0.27778924 0.04980336 -0.18494818
000170 e2 79 3f bd b1 41 3c be 78 b7 e7 bd 49 91 ed 3e
       -0.046747096 -0.18384434 -0.11314291 0.46399906
000180 d0 dc 0c bf 83 1c c7 be 81 4d 78 bd 69 27 bc 3e
       -0.55024433 -0.3888894 -0.06062079 0.36748818
000190 ce 19 69 be d4 d8 6a be b9 59 c4 bd 91 2d 5c be
       -0.2276375 -0.22934276 -0.09587426 -0.21501757
0001a0 c7 7c b1 bd 9f 1c d3 bd db 32 b7 bd 19 c6 24 3f
       -0.086663775 -0.103081934 -0.08945247 0.64364773
0001b0 e9 8d 2f 3f 9f 86 00 ba 2b 50 40 3c d5 9c ef bd
       0.6857591 -0.00049028726 0.0117378635 -0.11699835
0001c0 2f 59 c0 bd e0 fc 06 bf c1 91 2c bd 27 ec 07 be
       -0.093920104 -0.52729607 -0.04213119 -0.13273679
0001d0 f3 39 50 be 6d 9d e6 3e e6 00 0d bf 30 53 d5 bd
       -0.20334606 0.4504198 -0.55079496 -0.104162574
0001e0 71 32 88 be 44 ac 37 be e2 a1 18 3f 6f 6e 7d be
       -0.26600984 -0.17936808 0.59622014 -0.24749158
0001f0 af 37 1e 3f 89 00 ca be 9c 25 02 be 4e eb c7 3e
       0.61803716 -0.39453533 -0.1270966 0.3904671

net.2.weight f4 [64, 128]
000000 56 de a7 bc cd 48 6e 3e 6a 44 0e 3c 39 d1 9e 3d
       -0.02049176 0.23269959 0.008683303 0.0775475
000010 67 f0 c7 bc b3 16 33 3e c4 87 8f bd f2 ae 5b bc
       -0.024406625 0.17489128 -0.07008317 -0.013408409
000020 64 d5 d1 bd 46 75 a5 3d 02 b0 30 be 1d 62 22 bb
       -0.10245779 0.08079009 -0.17254642 -0.0024777718
000030 3e f6 bf bd 34 4f 37 be 5e 49 f9 bd cf 94 06 3e
       -0.09373139 -0.17901307 -0.12172197 0.13142703
000040 cd 67 a7 3d c7 09 44 3e ce b5 01 3d 2b b1 d7 3c
       0.08174095 0.19144355 0.031667523 0.026329597
000050 26 5a 05 3e 77 94 87 3d b7 88 2a bd 01 69 c3 3d
       0.1302267 0.06620114 -0.041634288 0.09541512
000060 40 07 c9 be f4 2e 67 3d d6 56 d8 bd 18 0e 0b be
       -0.39263344 0.056441262 -0.10563438 -0.13579595
000070 76 45 23 bd 99 fc 22 be 74 5f 17 be 9c 07 85 3d
       -0.039861165 -0.15916671 -0.14782506 0.06495592
000080 32 47 c5 3b 02 7a 9a 3d 82 c4 48 bd 1b 4b fb 3d
       0.00602045 0.075428024 -0.04901553 0.122701846
000090 0e 6b 1e be c6 12 51 3a 8e fd 15 be 74 c7 91 3e
       -0.15470526 0.0007975515 -0.14647505 0.28472483
0000a0 43 18 db bd e7 f2 15 bd f6 70 95 bc e7 3b 35 be
       -0.10697987 -0.036608603 -0.01824234 -0.17698632
0000b0 f6 7c a8 bd fc 3d 01 be 25 3d c1 bd b9 e5 58 3c
       -0.082269594 -0.12621301 -0.094354905 0.013238364
0000c0 5d c1 b1 bd 4f c0 a9 ba 68 20 82 bc 85 f0 ab 3d
       -0.08679459 -0.0012950989 -0.015884593 0.08395485
0000d0 85 cd 5a be e6 7c 8f bd bc c9 c8 bd a7 f6 63 3e
       -0.21367462 -0.07006244 -0.09804103 0.22262059
0000e0 cd 3c 5f bd 5d b4 a1 bd 5c 18 2e 3e 80 6d b3 bd
       -0.054501344 -0.0789573 0.1700148 -0.0876112
0000f0 d8 fb 3f bd d0 5c f2 bc f8 96 46 3e b9 11 45 3d
       -0.046871036 -0.029585272 0.19393528 0.048112605
000100 64 b6 4b bd 67 c1 ce 3d c1 70 b8 3c 11 a5 57 bd
       -0.049734488 0.10095482 0.022514703 -0.052647654
000110 06 77 24 3c 7a 4e f3 3c 75 14 8d bd 0c 73 a0 bd
       0.010038143 0.029700506 -0.068886675 -0.078344434
000120 db 7c 1b be 7a c9 1e bd 53 b6 c3 bd 1c 7f f5 bd
       -0.15184347 -0.03876636 -0.0955626 -0.11987135
000130 68 7e 5b 3d 67 73 41 be e0 f9 66 3d 93 70 82 bd
       0.053587347 -0.18891679 0.056390643 -0.06369128
000140 7e ad 42 bd 69 0b 0c bc d8 b4 83 3d 83 05 30 3e
       -0.047528736 -0.008547642 0.064309776 0.17189603
000150 48 7f 9e bd a6 cd df 3d 4d 85 7a be 1e fe 38 3c
       -0.07739121 0.10927896 -0.24464913 0.011291055
000160 4e 87 b8 ba e2 d8 ca 3c ce 29 d3 ba ae d2 0e 3e
       -0.001407841 0.02476162 -0.0016110481 0.13947555
000170 0e ed 7d 3e a2 9c 5f 3b 3d 36 cd 3d 74 8f 07 be
       0.2479746 0.003412046 0.10020111 -0.13238317
000180 8f 3e e5 bd 8d 91 c7 bd f3 e0 08 bc d7 97 98 bd
       -0.11193573 -0.097445585 -0.008354413 -0.07450836
000190 6c 41 f1 3d 1b 1f ab bd 95 c4 f3 3d 8c d4 19 bd
       0.11780056 -0.08355542 0.119027294 -0.037556216
0001a0 7c da 1a be 37 22 92 3d bc eb f8 bd c9 12 04 be
       -0.15122408 0.07135432 -0.12154338 -0.12897791
0001b0 cc 49 44 bd 80 9a ec bd 64 12 d9 bc a9 2e 72 3e
       -0.04792194 -0.11552906 -0.026498027 0.23650612
0001c0 30 88 3f 3c 25 98 8e bd 94 cb 09 3e 3e 34 32 3e
       0.0116901845 -0.06962613 0.13456565 0.17402741
0001d0 e8 b7 1b 3e 91 e9 ab bd ec c4 67 be b7 38 d9 3d
       0.15206873 -0.08394159 -0.22633713 0.106065206
0001e0 85 3f fd 3d 36 70 ab 3d 33 49 8f be a1 a1 b9 3d
       0.12365631 0.08371012 -0.27985534 0.090640314
0001f0 9e d1 02 be cc 66 b3 3d b7 ec 88 bc 51 97 a6 bd
       -0.12775275 0.08759841 -0.016714437 -0.0813433
000200 d4 f4 6d bd ba dc 01 3e 92 84 82 3d f3 86 a3 3d
       -0.058094814 0.12681857 0.06372942 0.07984724
000210 83 97 28 3d 75 f0 a1 3d 67 dd 94 3c a0 7d 19 3d
       0.041160118 0.07907192 0.01817198 0.03747332
000220 02 dd c9 bd 6e 8b c8 3d 81 76 36 be a9 91 7d 3e
       -0.09856607 0.09792219 -0.17818643 0.24762596
000230 1f 99 b2 3d d4 c7 40 be ae 49 fb 3c 6e 95 14 bc
       0.08720612 -0.18826228 0.030674782 -0.00906883
000240 d1 92 19 be 5d b1 07 3e cf 13 ff 3d db c1 6c 3e
       -0.14997412 0.13251252 0.1245495 0.23120825
000250 62 c1 17 3e ee f5 d5 3c 3b e4 aa bb fb 2b 01 3e
       0.14819863 0.026118245 -0.0052151955 0.12614433
000260 e1 9c 37 be a1 7b c2 3d 44 d7 da bd c8 bc 9a bd
       -0.17930938 0.094962366 -0.1068559 -0.075555384
000270 96 77 3f 3e 32 7d 0a be cd 77 57 bd dc 8b 55 3e
       0.18697962 -0.1352432 -0.052604485 0.20854133
000280 4e fa 03 3e de 2b c0 bd 6b e6 da 3c d1 07 23 be
       0.12888452 -0.09383367 0.0267212 -0.1592095
000290 9a ba 6d 3a e1 cf 03 be 2c d8 6f 3d 95 a2 0e 3e
       0.00090686383 -0.12872268 0.058555767 0.13929208
0002a0 13 d1 35 be 96 e6 5d be 9b 72 10 be 61 c4 69 bd
       -0.17755537 -0.21669993 -0.14106219 -0.057072047
0002b0 b3 a1 41 be 33 a1 16 3c 79 9a 02 be fd 55 3d 3d
       -0.1890934 0.009193706 -0.12754239 0.046224583
0002c0 bc 88 08 3d d4 b9 49 3d 54 bb 6c bd f7 78 eb 3d
       0.033333525 0.049249485 -0.057795838 0.114976816
0002d0 6d 9c b9 bd 4b 88 47 be ea 9e 2b be a4 64 3e bc
       -0.09063039 -0.19485585 -0.1675984 -0.011620674
0002e0 3a 3d 79 3d 73 a7 c4 bb fb f1 cd 3d 95 a0 a8 bd
       0.060849406 -0.006001407 0.1005592 -0.082337536
0002f0 7f bc 6b bd 3f b9 9e bd e1 f0 7a 3e 2f 70 1c be
       -0.05755281 -0.07750177 0.2450595 -0.1527717
000300 83 de ad bc 7c 22 cb bc 3e 4a f5 bc c2 3e 91 bd
       -0.021224266 -0.024796717 -0.029942628 -0.07092048
000310 8a 35 3e bd 0f b1 62 3e 5c 45 84 bd 64 2f d6 bd
       -0.046437778 0.22137855 -0.06458542 -0.10458258
000320 8a 2f eb bd 4f 92 f8 bd 28 a4 88 3d 08 66 1d be
       -0.11483677 -0.12137281 0.06671935 -0.15370953
000330 17 f6 19 be 2d 0b 0c bc ae fe 6b bc d0 31 a7 bd
       -0.15035282 -0.008547586 -0.014403982 -0.08163798
000340 6b 15 5f 3b 47 e0 23 bd 7e 11 ee 3d 2b 33 b4 3c
       0.0034039866 -0.04000881 0.1162443 0.021997055
000350 83 01 a3 3c b0 a6 3f 3e 27 4f 7c be 6b 13 24 3e
       0.019898182 0.1871593 -0.24639569 0.16023032
000360 c6 e5 0e be e1 63 36 3d 11 b2 01 bd 71 f1 fd 3c
       -0.13954839 0.044528846 -0.031663958 0.030998917
000370 a2 7a b4 3d 67 58 77 3d 50 9e 24 3d 94 a1 15 3c
       0.08812453 0.06038704 0.04019004 0.0091327615
000380 c3 3a dc 3c ac e5 26 be e5 a3 35 bd e0 8e 36 bd
       0.026883489 -0.1629855 -0.044345755 -0.04456985
000390 89 9e c1 bd f2 6b 1f be 06 48 ea bc 1d 7b c5 bc
       -0.09454066 -0.15568522 -0.028598797 -0.024106557
0003a0 2f 00 bf bd e9 7b 06 3d 04 02 35 3d fa b3 4b be
       -0.09326207 0.032833014 0.044191375 -0.19892874
0003b0 dd ec 3c bd 25 a6 f3 bd 42 ba 2c 3d 2d e2 70 3e
       -0.046124328 -0.11896924 0.042169817 0.23523779
0003c0 d9 cc 1a 3e a2 e1 db bd e6 d7 6b bc 86 06 c7 bd
       0.15117206 -0.107363954 -0.014394736 -0.09718041
0003d0 00 e9 a0 3c 88 2d f1 bd 3e 36 92 3c 46 b5 7d 3b
       0.019642353 -0.117762625 0.01784813 0.0038712784
0003e0 ee 0a 96 3e 1c 8b 57 3c 85 e7 b9 3b 40 90 dc 3d
       0.29305214 0.013155725 0.005673351 0.10769701
0003f0 92 37 76 be fb ef 1f be 20 1c a5 bc d8 a1 e3 bd
       -0.24044636 -0.15618889 -0.020155013 -0.111148536

net.2.bias f4 [64]
000000 b0 10 1c bd 52 04 41 be ac dc e0 3d ce 95 47 bd
       -0.038101852 -0.18849304 0.1097959 -0.04872685
000010 30 90 dd bd 53 de 19 3f 38 8e c5 3e 66 4d 5e 3e
       -0.10818517 0.60104865 0.38585067 0.21709213
000020 69 73 7f 3c 21 66 0b 3f 79 f6 e5 3c 17 c2 46 3e
       0.015591481 0.5445271 0.028071629 0.19409977
000030 96 98 b3 3e 7e bb 9d 3d ec 74 0e bf 2f 7b ec be
       0.3507735 0.07701777 -0.5564716 -0.46187732
000040 2c 2f e9 3e 31 d8 cb 3d 5b 1e ba 3e bb dd a8 3e
       0.45543802 0.099533446 0.36351284 0.32981667
000050 3d 48 3b be 4d 82 01 be b8 b1 95 3d 56 26 8a 3e
       -0.18289275 -0.12647362 0.07309288 0.26982373
000060 b2 61 16 3e 57 5d ce 3e 96 62 94 be f0 cd 2c be
       0.14685705 0.40305588 -0.28981465 -0.16875434
000070 a6 65 81 3e 2b 86 33 3f 08 fa 25 3f ca f9 bc 3e
       0.25272864 0.701266 0.6483464 0.36909324
000080 ad 5e bd 3e 1b c5 c3 bd 57 84 a8 3e 06 38 86 bb
       0.36986294 -0.09559079 0.32913467 -0.004096034
000090 d1 f8 19 3e 99 58 2b 3e 33 2b 03 3e e4 1f 77 be
       0.15036322 0.16733016 0.12809448 -0.24133259
0000a0 03 85 25 be da 17 dd bd 82 f0 e4 3d ce b0 01 3c
       -0.16164021 -0.10795565 0.11178686 0.007915689
0000b0 85 8f 41 3c a4 e0 d1 bd 8b df 1c bc d1 5b 17 3e
       0.011814003 -0.10247925 -0.009574781 0.14781119
0000c0 81 ed 46 3e fd 9c 93 3e 72 37 2c 3b a2 24 57 3d
       0.19426538 0.2883071 0.0026278165 0.05252517
0000d0 ac e0 96 3e 81 57 60 be 19 e1 9b 3c 87 14 24 3d
       0.29468286 -0.2190838 0.019028233 0.04005864
0000e0 c0 da 3d 3d 14 06 ba bd e7 a0 69 bd a8 6b fc be
       0.046351194 -0.090831906 -0.057038214 -0.49300885
0000f0 99 10 2d bd e1 7d 30 3f b1 44 ac bd 0e 72 43 bf
       -0.042252157 0.68942076 -0.08411539 -0.7634591

net.4.weight f4 [1, 64]
000000 81 1e 3e 3e 88 df 09 3e b4 ac 47 3e 9d 6e 3c bf
       0.18566324 0.13464177 0.19499475 -0.7360628
000010 25 a9 a1 3d b5 77 8c be b5 d6 51 be 08 78 f4 bd
       0.0789359 -0.2743508 -0.2049206 -0.11936957
000020 e0 dd ed bc 0b 41 6e be 7f 3e 48 3e a8 00 49 3e
       -0.029036462 -0.23267 0.1955509 0.19629157
000030 61 74 9b be 52 13 ce 3d f0 2c d0 be 3f e0 29 bf
       -0.30362228 0.10062279 -0.40659285 -0.663578
000040 0e 35 84 be 5a 95 31 3e 01 c1 49 be 37 f5 01 be
       -0.25821728 0.1734213 -0.19702531 -0.12691198
000050 36 ce a4 3e b5 98 f6 bc e2 c6 8b 3e ce 30 f7 bd
       0.32188576 -0.030102113 0.27300173 -0.12069856
000060 45 11 be bd ed 58 59 be 96 14 ba 3e 9d b9 24 bf
       -0.09280638 -0.21225329 0.3634383 -0.64345723
000070 41 67 df bd 19 06 1d bf 52 5a d8 be 93 fc 4f be
       -0.10908366 -0.6133743 -0.4225641 -0.20311193
000080 30 94 cd be 87 f9 b2 3e 98 69 89 3e b0 44 41 3e
       -0.4015212 0.34956 0.26838374 0.18873858
000090 0b a7 3e be 07 3a 55 3e fb b2 ee bd 52 7e 07 3f
       -0.1861841 0.20822917 -0.116552316 0.52927125
0000a0 9e cc a3 3e 77 83 ab 3e ba 1d b0 3e a9 70 d8 bc
       0.31992048 0.33498737 0.3439768 -0.026420908
0000b0 33 24 9d 3e 0f 48 85 3e 46 4e dc 3d f3 31 94 3e
       0.3069168 0.2603154 0.10757117 0.28944358
0000c0 5e be c7 3e 80 79 f3 bd 30 47 63 be 5b 51 7f 3d
       0.39012426 -0.11888409 -0.22195125 0.062333446
0000d0 b2 0c 56 be 29 6a 3c bf fa 93 ed 3d ba d5 78 be
       -0.2090328 -0.7359949 0.1160049 -0.2430028
0000e0 d0 ab 85 be 4d 7c a8 bd 50 9a 84 3e eb 62 20 bf
       -0.26107645 -0.082268335 0.2589898 -0.62650937
0000f0 d6 df d9 bd dc 29 ff be ae d1 7d 3e a1 19 19 bf
       -0.106383964 -0.49836624 0.24787018 -0.5980473
