saved_models/aae/discriminator.pt (torch, 52932 bytes, 5 tensors)

net.0.weight f4 [128, 32]
0.12313085 -0.06225801 0.04595528 -0.10783695 -0.17528468 0.044521686 -0.14574218 0.11474777
-0.23777921 -0.08617167 0.5021205 -0.2356638 0.011560859 -0.100207545 -0.08896022 -0.1718605
0.26838353 -0.031024983 -0.051134203 -0.18480948 -0.04312949 -0.3008678 -0.04218122 -0.32931024
-0.10281213 -0.030362986 -0.04133907 -0.062169727 -0.0868027 -0.3145604 0.11740666 -0.14894086
0.017967282 -0.16548239 0.059375808 -0.03356403 -0.2809676 0.076319106 0.20156084 0.19272679
-0.23192835 -0.30027863 -0.06818796 0.01504894 0.029950628 -0.015539774 -0.17034712 -0.104942635
-0.4311329 0.033832483 0.44455954 -0.065551355 0.055872526 0.12045351 -0.38028026 -0.21019863
-0.35946918 0.02907891 -0.19482423 -0.042353388 0.1527694 -0.078057736 0.17073554 0.100488625
-0.010833894 0.28149405 0.16598481 -0.010885528 -0.016048215 -0.09998004 -0.06438622 -0.031542428
0.15861008 0.029867053 0.19809698 -0.28793138 -0.10922098 0.06681496 -0.016900655 -0.11906407
-0.16427803 -0.00943936 0.17526005 0.013350289 -0.22986133 -0.12965779 0.022434518 0.049963366
0.09671177 -0.058906097 0.042823415 -0.1816689 0.072225474 0.019542316 0.106186576 0.10428812
0.30605367 -0.06407846 0.013697783 0.21599434 -0.11083628 0.0066484613 0.035830792 -0.10019195
-0.20682757 -0.012267462 0.13509041 -0.08535401 0.016250296 -0.029924273 -0.119530566 0.15890919
0.07945353 -0.0024010376 0.20581262 -0.22978505 0.14472279 0.17317794 0.058372673 -0.10814554
-0.06359766 -0.08481007 0.10479661 -0.19047125 0.12143465 0.2556532 -0.030106142 -0.13398933
0.05089114 0.050401226 0.07927569 -0.3153354 -0.21559274 -0.15318015 0.047387436 -0.043333508
-0.10349286 0.27942318 -0.06057312 0.022506703 -0.6638516 -0.06560687 0.044660084 -0.030933939
0.16815439 -0.0850647 0.13441451 0.07213269 0.09957983 -0.16325703 0.18466815 0.06677007
0.027856808 -0.018413847 -0.14458235 -0.16571817 -0.12674521 0.15872549 0.22618657 -0.02383418
0.04915272 0.05232867 -0.10493065 0.027413327 -0.060053375 0.3359064 -0.001369514 0.076592766
-0.38943192 0.12526993 -0.0084333215 0.04854412 0.19653523 -0.23077376 -0.14347409 0.016642772
0.00811749 -0.0013336344 0.23979348 0.15179674 -0.009128039 0.01630479 -0.11633184 -0.003688691
0.027754948 -0.10237704 0.19122623 0.01724017 0.28886035 0.24116586 0.08782025 0.15989184
9.752986e-05 -0.21669556 0.22965156 0.005913572 0.07773335 0.047621977 0.11144471 -0.12326099
-0.05953267 0.048975796 -0.10824141 0.14565091 -0.008185719 -0.035898287 -0.30459425 0.12004407
-0.2362796 0.061574876 -0.09271481 0.13139388 0.02585016 -0.2837399 -0.07860558 0.21966076
-0.03994985 0.02518745 -0.058885448 0.12858024 0.21627921 0.06310466 0.09212296 -0.252314
0.040530074 -0.13942966 0.10270499 -0.006517734 0.042470694 -0.28664967 -0.013442083 -0.18781248
0.098802775 -0.22670232 -0.23517643 -0.030755904 0.1105151 0.18629695 -0.03301242 0.18755773
0.22413802 -0.07642841 -0.12875485 -0.20755303 -0.12590729 -0.074618064 0.24723841 -0.09331355
-0.076982014 -0.14563394 0.053062506 -0.20462562 -0.14163359 0.11092143 -0.06282625 0.07201402
00000000: 072c fc3d 4102 7fbd 9b3b 3c3d 9ed9 dcbd
00000010: d47d 33be 5f5c 363d 703d 15be e100 eb3d
00000020: 657c 73be c67a b0bd f88a 003f da51 71be
00000030: c269 3d3c 9d39 cdbd c730 b6bd 33fc 2fbe
00000040: 9169 893e 1b28 febc 1972 51bd b23e 3dbe
00000050: 8ca8 30bd 580b 9abe 37c6 2cbd 5a9b a8be
00000060: 2a8f d2bd ccbb f8bc 2853 29bd afa5 7ebd
00000070: 9dc5 b1bd 100e a1be e772 f03d f483 18be
00000080: 1f30 933c 3774 29be 0c34 733d 707a 09bd
00000090: fcda 8fbe 314d 9c3d f765 4e3e 2c5a 453e
000000a0: a07e 6dbe 1fbe 99be 21a6 8bbd d48f 763c
000000b0: 055b f53c 899a 7ebc 7a6f 2ebe 2aec d6bd
000000c0: 74bd dcbe ee93 0a3d 4f9d e33e ca3f 86bd
000000d0: 97da 643d 54b0 f63d 18b4 c2be 4f3e 57be
000000e0: 580c b8be e536 ee3c 0180 47be bf7a 2dbd
000000f0: 956f 1c3e bcdc 9fbd 4cd5 2e3e fbcc cd3d
00000100: a580 31bc fd1f 903e ecf7 293e 3759 32bc
00000110: 8c77 83bc 56c2 ccbd ecdc 83bd a232 01bd
00000120: ae6a 223e c0ab f43c efd9 4a3e be6b 93be
00000130: 40af dfbd 48d6 883d 3e73 8abc ddd7 f3bd
00000140: 8038 28be 8ca7 1abc 5f77 333e 2cbb 5a3c
00000150: c560 6bbe 03c5 04be 98c8 b73c 63a6 4c3d
00000160: d210 c63d 8547 71bd 9b67 2f3d 6a07 3abe
00000170: f3ea 933d 3517 a03c 5978 d93d 0395 d53d
00000180: 11b3 9c3e 913b 83bd ab6c 603c 9f2d 5d3e
00000190: 22fe e2bd 56db d93b 4fc3 123d 7031 cdbd
000001a0: 9bca 53be 77fd 48bc 2455 0a3e 15ce aebd
000001b0: 571f 853c c023 f5bc 71cc f4bd 17b9 223e
000001c0: 88b8 a23d ba5a 1dbb 8bc0 523e c64c 6bbe
000001d0: 3632 143e 8f55 313e 2f18 6f3d 697b ddbd
000001e0: 7d3f 82bd e7b0 adbd 9b9f d63d e50a 43be
000001f0: bbb2 f83d fae4 823e 28a1 f6bc 8034 09be
00000200: 3a73 503d 8471 4e3d 4b5b a23d a473 a1be
00000210: 58c4 5cbe 42db 1cbe 5419 423d 7a7e 31bd
00000220: 11f4 d3bd 8e10 8f3e 851b 78bd fa5f b83c
00000230: 2ef2 29bf e55c 86bd 7eed 363d 2c69 fdbc
00000240: aa30 2c3e 6736 aebd f5a3 093e 4eba 933d
00000250: 83f0 cb3d da2c 27be a619 3d3e bfbe 883d
00000260: f633 e43c a3d8 96bc 650d 14be 06b2 29be
00000270: 7fc9 01be ef88 223e 749d 673e e63f c3bc
00000280: 5d54 493d 9656 563d e1e5 d6bd ea91 e03c
00000290: 87fa 75bd ecfb ab3e 4481 b3ba abdc 9c3d
000002a0: 9f63 c7be c346 003e ea2b 0abc 33d6 463d
000002b0: 8840 493e f54f 6cbe dfea 12be 6c56 883c
000002c0: 39ff 043c 58cd aeba 6c8c 753e 9b70 1b3e
000002d0: c58d 15bc 9f91 853c 633f eebd f7bd 71bb
000002e0: 585e e33c 0eab d1bd cfd0 433e 423b 8d3c
000002f0: 81e5 933e 2ff4 763e 1adb b33d b0ba 233e
00000300: f288 cc38 71e5 5dbe c729 6b3e a3c6 c13b
00000310: aa32 9f3d 430f 433d 203d e43d 4270 fcbd
00000320: 87d8 73bd d89a 483d acad ddbd 8325 153e
00000330: 651d 06bc 150a 13bd c7f3 9bbe aad9 f53d
00000340: 48f3 71be f035 7c3d 43e1 bdbd 1e8c 063e
00000350: b7c3 d33c 5b46 91be f6fb a0bd c0ee 603e
00000360: 74a2 23bd e955 ce3c de31 71bd 8aaa 033e
00000370: 4c78 5d3e 043d 813d f6aa bc3d 4d2f 81be
00000380: dd02 263d a6c6 0ebe fe56 d23d b792 d5bb
00000390: c0f5 2d3d bfc3 92be 2f3c 5cbc ea51 40be
000003a0: 1c59 ca3d a724 68be 17d2 70be cef3 fbbc
000003b0: be55 e23d a1c4 3e3e 0838 07bd 220f 403e
000003c0: 7084 653e 8086 9cbd 50d8 03be c888 54be
000003d0: d7ed 00be 5bd1 98bd 112c 7d3e 2d1b bfbd
000003e0: bfa8 9dbd 1021 15be 1258 593d 6189 51be
000003f0: 6508 11be c62a e33d 0dab 80bd 167c 933d

net.0.bias f4 [128]
-0.09153015 -0.10658081 0.14541478 -0.28882855 0.44709247 0.056911062 0.08159111 0.09270994
0.01182799 0.3417691 -0.081097364 -0.016844679 0.17328444 -0.12221542 0.2760921 -0.07470584
-0.13763997 0.11357751 0.23458955 -0.39826775 0.06491367 0.008846389 0.061721336 -0.008198077
-0.007302312 -0.2214212 0.13341546 -0.12735385 0.12776934 -0.06670977 -0.12269431 0.028840195
-0.074232295 0.07406058 0.28376865 0.08796243 0.02091319 -0.16218618 0.21510434 0.18177395
0.013885315 -0.022715617 -0.48653737 -0.08230157 0.0609349 0.08043214 -0.39633432 -0.00610604
0.16764602 0.13257669 0.26677704 0.103326045 -0.23592602 -0.17439727 0.06621155 0.0041511944
-0.4517108 0.12738867 0.105704464 -0.07509452 0.5511075 -0.21455915 0.29573575 0.42104232
-0.046681985 -0.015669165 -0.27373922 -0.07688315 0.08638065 0.018667175 -0.10117784 -0.25524464
-0.06076504 0.30166304 -0.35438126 -0.008799231 -0.0017424067 -0.018147489 -0.06337251 -0.040042885
0.30956405 -0.24861988 -0.03564333 0.27692893 -0.021632168 0.02411304 -0.25311542 -0.007210172
-0.0021215733 -0.047356244 0.18804309 0.06452545 0.014145958 0.08317026 -0.12345022 0.03593476
0.13481623 -0.029673638 0.3873692 0.07954909 -0.17673571 0.069501214 -0.27557838 0.14293082
-0.055577923 -0.035946805 -0.04265327 0.10481719 0.3000849 -0.06839715 -0.10033512 -0.019745521
-0.15056117 0.259437 -0.01504572 -0.18244345 -0.21280597 0.059760243 0.07843471 -0.5188729
-0.21292028 -0.24854654 -0.08396307 0.16948628 -0.25371677 -0.4522039 0.21725677 0.17932995
00000000: 2974 bbbd 0a47 dabd 9de7 143e 56e1 93be
00000010: 4ee9 e43e 931b 693d 3d19 a73d b6de bd3d
00000020: 30ca 413c 5cfc ae3e 6016 a6bd dafd 89bc
00000030: 7a71 313e 144c fabd f25b 8d3e 60ff 98bd
00000040: 7ef1 0cbe 539b e83d 3e38 703e c0e9 cbbe
00000050: 75f1 843d 72f0 103c 83cf 7c3d 3a51 06bc
00000060: 3c48 efbb 3dbc 62be 109e 083e 0c69 02be
00000070: f7d5 023e 229f 88bd 2847 fbbd 4642 ec3c
00000080: 1a07 98bd 13ad 973d 204a 913e a625 b43d
00000090: 2352 ab3c 2214 26be 5044 5c3e f322 3a3e
000000a0: 3b7f 633c 1a16 babc 6d1b f9be ba8d a8bd
000000b0: e096 793d 9bb9 a43d 55ec cabe 2d15 c8bb
000000c0: 66ab 2b3e 2fc2 073e 0097 883e 9b9c d33d
000000d0: 9796 71be 3395 32be ec99 873d be06 883b
000000e0: a346 e7be 2d72 023e 957b d83d 28cb 99bd
000000f0: 6215 0d3f 65b5 5bbe ad6a 973e dc92 d73e
00000100: 9c35 3fbd 9f5c 80bc 8c27 8cbe ea74 9dbd
00000110: 57e8 b03d e7eb 983c 5436 cfbd 6daf 82be
00000120: c3e4 78bd 9473 9a3e 7671 b5be a62a 10bc
00000130: 7861 e4ba 0baa 94bc 72c9 81bd 0204 24bd
00000140: 2e7f 9e3e 3696 7ebe befe 11bd a1c9 8d3e
00000150: f235 b1bc b688 c53c 5898 81be 4e43 ecbb
00000160: 180a 0bbb 9ff8 41bd 5e8e 403e eb25 843d
00000170: 73c4 673c 2b55 aa3d 78d3 fcbd 5430 133d
00000180: 440d 0a3e 2116 f3bc 4155 c63e a2ea a23d
00000190: 35fa 34be a756 8e3d 9c18 8dbe 755c 123e
000001a0: ada5 63bd f53c 13bd 32b5 2ebd 65aa d63d
000001b0: baa4 993e ce13 8cbd 807c cdbd 5cc1 a1bc
000001c0: b52c 1abe edd4 843e 5382 76bc 75d2 3abe
000001d0: cfe9 59be 28c7 743d 61a2 a03d dbd4 04bf
000001e0: c607 5abe fc82 7ebe d4f4 abbd d08d 2d3e
000001f0: 2ae7 81be 4587 e7be 8f78 5e3e 45a2 373e

net.2.weight f4 [64, 128]
-0.0054632383 0.15410149 0.020312008 -0.046535406 -0.026457746 0.060781937 -0.034551956 -0.047739774
-0.055291962 -0.071809955 0.10411593 0.101582214 0.081947155 0.042135917 -0.08683024 -0.077545494
-0.117949314 0.014951456 -0.036275458 -0.059615713 -0.09779547 0.006531857 0.0060839723 -0.058398135
0.07220586 -0.060742505 -0.007852247 0.0020720474 -0.071014024 0.06814829 0.050537154 0.11156309
-0.086224675 0.051285077 -0.0036214995 -0.017072301 0.070947304 0.05418146 0.03482215 0.04774733
-0.057126846 0.013136819 -0.054019373 0.099286154 -0.000680434 -0.09271256 0.070974715 -0.03080396
0.03095174 -0.046969328 -0.07909829 0.113881156 -0.013078792 0.0022811492 0.016982036 -0.031687338
-0.00803243 -0.01872513 0.13729224 0.1013338 -0.0172406 -0.053607017 0.018151248 8.941864e-05
-0.0329625 0.030026302 -0.12758195 0.00030319602 -0.044094913 -0.019402985 0.013454255 -0.0038515872
-0.10076238 0.03755959 0.07572765 -0.04332379 0.0510266 0.06583647 -0.06412175 -0.020938195
-0.04243528 0.0027656113 0.037737742 0.04634779 -0.011550676 0.055822406 -0.051718388 -0.004422749
0.088902876 0.04560815 0.011390889 -0.08281001 0.10023742 0.03161241 0.08778538 0.028362006
-0.019502722 0.072973266 -0.047312856 -0.05988116 0.10394854 -0.012409803 0.034629863 0.1257303
-0.109263174 0.14677633 0.043779615 0.06415029 0.020197483 -0.046410687 0.1123694 0.05911593
0.09151915 0.02023185 -0.018921774 0.045767833 0.008289257 0.031842217 -0.025203198 -0.008168581
0.11818229 0.062279064 -0.057862975 0.026274586 -0.060597904 0.119791776 0.053536016 0.076401435
-0.033820834 0.06310616 0.02578967 -0.076877035 -0.080046736 0.01527401 -0.14785701 0.11311651
0.006699074 0.019382654 0.032918848 0.06528761 0.043328837 -0.07116894 0.053949725 -0.069077075
-0.07250466 0.10667299 -0.031177314 0.006049607 0.005488657 0.008338959 -0.08064107 0.024405953
-0.09922155 0.08057276 -0.13878761 0.056173798 0.033938013 0.051670864 0.1706352 0.06709998
-0.056081984 0.017346924 -0.060632385 0.073008366 -0.051520336 0.19648701 -0.00999328 0.045906603
-0.005986011 0.10431687 -0.059382945 0.044705506 0.039860178 0.0036919697 0.16960438 -0.009073068
-0.104118325 0.07454407 -0.0028743607 0.23570473 0.06037741 0.23613536 0.11895562 0.011952041
-0.00958806 -0.10534442 0.04944267 0.16895752 -0.11159898 0.02094441 -0.04396618 -0.04067869
0.05092242 -0.06117075 -0.111399196 0.045074005 -0.0353113 0.046385117 0.15795657 0.16225538
0.024028106 -0.16603023 0.10875402 0.07709565 -0.02121123 0.11829629 -0.086525455 -0.042344023
0.034481585 -0.10705242 0.09384976 -0.004123214 -0.10795425 0.111790426 0.013531573 -0.021980671
0.11402879 0.13763462 0.01972456 0.0077564917 0.058791388 0.09684001 0.023964548 0.016989745
-0.07804757 0.106603436 -0.09119293 -0.036770884 0.14946914 -0.053243104 0.019856283 0.06526546
-0.0857833 0.084213935 0.022404648 0.1637113 -0.09080386 -0.10155419 0.12139271 0.14458132
0.19538444 -0.008525355 0.021106696 0.027875185 0.03961147 0.12966767 0.033810202 0.008254632
0.045974214 0.21533094 0.053782385 -0.06362578 0.071097456 0.13460562 0.057764865 0.022511967
00000000: f704 b3bb c8cc 1d3e 5e65 a63c e99b 3ebd
00000010: eabd d8bc 7bf6 783d 5a86 0dbd c88a 43bd
00000020: d379 62bd 1911 93bd bc3a d53d 560a d03d
00000030: e9d3 a73d b696 2c3d 0ed4 b1bd 2cd0 9ebd
00000040: 698f f1bd f4f6 743c 9395 14bd 9b2f 74bd
00000050: fe48 c8bd 3009 d63b 0f5c c73b e232 6fbd
00000060: aae0 933d 22cd 78bd b6a6 00bc 30cb 073b
00000070: cd6f 91bd 5591 8b3d 0c00 4f3d 307b e43d
00000080: 9096 b0bd 4d10 523d ae56 6dbb 36db 8bbc
00000090: d24c 913d 61ed 5d3d aca1 0e3d b492 433d
000000a0: d7fd 69bd d03b 573c 6b43 5dbd 8a56 cb3d
000000b0: 275f 32ba 15e0 bdbd 315b 913d 9658 fcbc
000000c0: 818e fd3c e962 40bd 49fe a1bd 863a e93d
000000d0: 6e48 56bc 557f 153b e91d 8b3c 95ca 01bd
000000e0: 749a 03bc 7265 99bc 5696 0c3e 1888 cf3d
000000f0: 293c 8dbc 0893 5bbd edb1 943c 4486 bb38
00000100: b003 07bd b8f9 f53c d8a4 02be 48f6 9e39
00000110: de9c 34bd 02f3 9ebc 3c6f 5c3c e96a 7cbb
00000120: 825c cebd 16d8 193d 1917 9b3d 4974 31bd
00000130: 4501 513d 45d5 863d 4452 83bd 9486 abbc
00000140: 9ed0 2dbd 423f 353b e492 1a3d 2ed7 3d3d
00000150: 0c3f 3dbc 09a6 643d a9d6 53bd b5ec 90bb
00000160: b612 b63d 9dcf 3a3d daa0 3a3c 4b98 a9bd
00000170: 4749 cd3d 047c 013d d2c8 b33d 7057 e83c
00000180: 2cc4 9fbc 0273 953d 20cb 41bd f245 75bd
00000190: f9e2 d43d 7d52 4bbc 0bd8 0d3d 72bf 003e
000001a0: 5fc5 dfbd 894c 163e 4152 333d 3a61 833d
000001b0: 3175 a53c 2219 3ebd ee21 e63d 8c23 723d
000001c0: 646e bb3d 44bd a53c d601 9bbc 0d77 3b3d
000001d0: aacf 073c fc6c 023d f076 cebc 83d5 05bc
000001e0: 8e09 f23d 5518 7f3d ba01 6dbd cd3d d73c
000001f0: 8235 78bd 6455 f53d 9548 5b3d 5b78 9c3d
00000200: b787 0abd cd3d 813d dc44 d33c b571 9dbd
00000210: 8bef a3bd d73f 7a3c d467 17be a1a9 e73d
00000220: e883 db3b 5fc8 9e3c ead5 063d 83b5 853d
00000230: 9479 313d 05c1 91bd 63fa 5c3d 4878 8dbd
00000240: 537d 94bd 5e77 da3d 9167 ffbc c83b c63b
00000250: 31da b33b 21a0 083c 2527 a5bd feee c73c
00000260: ab34 cbbd 5503 a53d 571e 0ebe 7f16 663d
00000270: 9602 0b3d d4a4 533d feba 2e3e b76b 893d
00000280: 39b6 65bd 231b 8e3c aa59 78bd 6985 953d
00000290: fd06 53bd e433 493e dbba 23bc 9008 3c3d
000002a0: 4d26 c4bb 15a4 d53d 883b 73bd 1f1d 373d
000002b0: 6d44 233d f9f4 713b c5ac 2d3e 35a7 14bc
000002c0: fd3b d5bd 90aa 983d c55f 3cbb 955c 713e
000002d0: 4e4e 773d 78cd 713e 019f f33d 7ed2 433c
000002e0: 3d17 1dbc d1be d7bd 6684 4a3d 3303 2d3e
000002f0: 028e e4bd 9c93 ab3c e215 34bd b39e 26bd
00000300: 0794 503d 2e8e 7abd 4325 e4bd 859f 383d
00000310: 95a2 10bd 52fe 3d3d 5ebf 213e 4626 263e
00000320: 97d6 c43c d403 2abe 6dba de3d 53e4 9d3d
00000330: 2cc3 adbc 5345 f23d 4234 b1bd ed70 2dbd
00000340: 903c 0d3d 4d3e dbbd 4e34 c03d 071c 87bb
00000350: 1e17 ddbd 61f2 e43d 88b3 5d3c cf10 b4bc
00000360: ed87 e93d 17f0 0c3e 6795 a13c 2b2a fe3b
00000370: 3dcf 703d 0e54 c63d 4d51 c43c 142e 8b3c
00000380: 68d7 9fbd e752 da3d 5cc3 babd 119d 16bd
00000390: 700e 193e 7115 5abd a5a9 a23c e6a9 853d
000003a0: 28af afbd 5b78 ac3d f489 b73c efa3 273e
000003b0: 60f7 b9bd a5fb cfbd be9c f83d 200d 143e
000003c0: dc12 483e eead 0bbc f3e7 ac3c 805a e43c
000003d0: a33f 223d 9ac7 043e 917c 0a3d 703e 073c
000003e0: 754f 3c3d b77f 5c3e eb4a 5c3d 3c4e 82bd
000003f0: 8b9b 913d 0ed6 093e da9a 6c3d 046b b83c

net.2.bias f4 [64]
-0.02737636 0.12905091 0.078628995 -0.039276816 -0.042709045 -0.03431746 0.13761497 0.0054322123
0.08965832 -0.540917 0.114177085 -0.09008108 0.087040424 0.043374605 0.09765013 -0.04341234
0.036295675 0.072151415 0.13548057 0.15601356 0.053730328 -0.12677933 0.040018197 0.08165249
0.0800684 0.0067628515 0.049446587 -0.20927145 0.121045925 0.06839426 0.1505192 0.05322757
0.0529024 0.024137164 -0.07841211 -0.04163427 0.06935336 -0.22602753 0.090856925 0.03725714
0.03803878 -0.059271123 -0.14799066 0.12065744 -0.26451036 0.00080459873 -0.026046881 0.023673818
0.026142636 0.051606108 -0.07879735 0.027964 0.07379807 0.27686733 0.18498117 0.050680738
0.28216705 0.11957212 -0.002564772 0.0026671954 0.0588307 -0.29156038 0.036581557 0.07638254
00000000: 6344 e0bc ec25 043e 3d08 a13d bae0 20bd
00000010: aeef 2ebd 7790 0cbd f0ea 0c3e b300 b23b
00000020: c89e b73d 8979 0abf add5 e93d 6e7c b8bd
00000030: 4042 b23d 92a9 313d cbfc c73d 23d1 31bd
00000040: c6aa 143d 1fc4 933d 6bbb 0a3e 05c2 1f3e
00000050: 5514 5c3d 71d2 01be 1fea 233d 6c39 a73d
00000060: e7fa a33d e99a dd3b 8188 4a3d 414b 56be
00000070: ede6 f73d 4a12 8c3d b521 1a3e 2705 5a3d
00000080: 30b0 583d 4dbb c53c 8796 a0bd b288 2abd
00000090: 2209 8e3d c373 67be 3213 ba3d f19a 183d
000000a0: 8dce 1b3d 47c6 72bd dd8a 17be 3f1b f73d
000000b0: e76d 87be b5eb 523a 4560 d5bc 98ef c13c
000000c0: 1529 d63c ed60 533d 8160 a1bd c214 e53c
000000d0: 7123 973d 8ec1 8d3e b46b 3d3e 9b96 4f3d
000000e0: 3378 903e 3ae2 f43d bc15 28bb 1dcc 2e3b
000000f0: 76f8 703d 6747 95be 8bd6 153d 736e 9c3d

net.4.weight f4 [1, 64]
0.06801609 0.08554634 -0.08513591 0.101931706 0.31289575 -0.047689635 -0.092039235 0.13387208
0.10118884 -0.64682925 0.20410974 0.014748103 0.12328134 0.17091669 0.1305553 0.07730721
0.18755102 0.07990939 -0.19679525 -0.07403703 -0.09279382 -0.02267476 0.1298428 -0.32525024
-0.2281127 0.0020397694 0.19952229 0.40697053 -0.09268657 -0.058212586 -0.17386006 0.05556263
0.15757655 -0.13775112 -0.06729644 -0.14450985 0.12155065 -0.31056413 0.09478775 -0.1727426
0.1126524 -0.19793408 0.020571895 -0.08183694 0.4483304 0.05911951 -0.07732479 0.09374504
-0.15338433 0.17479676 0.1887807 0.14561248 -0.2916573 -0.37433943 -0.14691456 0.11332361
-0.17346732 0.11383143 0.17957093 -0.10296276 0.13836072 0.34661937 0.09471368 0.1738812
00000000: 054c 8b3d eb32 af3d bc5b aebd 92c1 d03d
00000010: df33 a03e 3556 43bd 117f bcbd c315 093e
00000020: 183c cf3d 9a96 25bf 2502 513e 07a2 713c
00000030: ed7a fc3d c904 2f3e 4ab0 053e 3e53 9e3d
00000040: 600d 403e 89a7 a33d b284 49be baa0 97bd
00000050: b00a bebd 6bc0 b9bc 83f5 043e 3387 a6be
00000060: 6096 69be a7ad 053b 924f 4c3e 715e d03e
00000070: 75d2 bdbd 5270 6ebd 5f08 32be a495 633d
00000080: bf5b 213e a10e 0dbe b7d2 89bd 64fa 13be
00000090: 8cef f83d 4302 9fbe 1420 c23d 70e3 30be
000000a0: 4db6 e63d 3baf 4abe 6486 a83c 209a a7bd
000000b0: 908b e53e 4d27 723d 765c 9ebd 66fd bf3d
000000c0: c810 1dbe ecfd 323e ba4f 413e 701b 153e
000000d0: 1b54 95be 6ba9 bfbe c570 16be 3516 e83d
000000e0: 6ba1 31be 7420 e93d 71e1 373e 24de d2bd
000000f0: 6fae 0d3e 1878 b13e 3ff9 c13d ea0d 323e
